scripts/pth/best.pth (torch, 785111 bytes, 10 tensors)

weight f4 [32, 128, 32]
-0.09245462 -0.11740193 -0.10887769 -0.08395176 -0.10254883 -0.08938805 -0.08491558 -0.10735471
-0.08577928 -0.10765496 -0.089468524 -0.087039284 -0.073353894 -0.096430644 -0.11568499 -0.115929514
-0.088360265 -0.08151569 -0.09708317 -0.09986986 -0.10515369 -0.11058446 -0.10453664 -0.0872131
-0.106304646 -0.091062695 -0.099949345 -0.100881 -0.10453055 -0.10629292 -0.091085546 -0.100143045
0.013136258 0.010306423 -0.02048681 -0.03820484 0.011327143 0.004926282 0.021256676 0.04919179
0.043072607 0.03476552 0.019323708 0.029402243 0.020584587 0.03389067 0.026545024 -0.002007027
0.025154531 0.035684764 0.02466664 0.019918445 0.020452857 0.026016166 0.024696175 0.015446606
0.024146514 -0.011171462 0.0050369324 0.013534483 -0.021440312 0.0034042902 0.029280022 0.017573329
0.021973746 0.040447865 0.016443942 0.009526238 0.038974334 0.035403088 0.027343629 0.038832814
0.046341613 0.042468075 0.051755227 0.053850062 0.05966298 0.053229496 0.040947963 0.07544548
0.05451047 0.043581925 0.049118616 0.053127937 0.06349226 0.052442092 0.04304418 0.051293492
0.040811203 0.057385527 0.05422747 0.07286203 0.06132129 0.039541434 0.069444425 0.071881905
-0.0415553 -0.044308774 -0.06210372 -0.040915098 -0.02814417 -0.030431578 -0.038873274 -0.04761892
-0.029127216 -0.01711022 -0.023919519 -0.0137332715 -0.028371422 -0.01636983 -0.008712186 -0.0017421972
-0.024620399 -0.03554179 -0.017217528 -0.010729891 -0.02731021 -0.03085446 -0.00603742 -0.009505269
-0.0027542114 -0.016517779 -0.03061001 -0.0060031884 -0.02387103 0.00024219068 -0.008928673 -0.030140407
-0.042624343 -0.04557508 -0.059778374 -0.05982528 -0.022455132 -0.01682446 -0.039326135 -0.026238915
-0.041896917 -0.04235351 -0.038100705 -0.02255392 -0.03902361 -0.037025493 -0.05569927 -0.024776915
-0.020889228 -0.045915633 -0.04651165 -0.036892205 -0.013620589 -0.033721924 -0.02276075 -0.017267035
-0.030669715 -0.0399763 -0.041577563 -0.04719726 -0.029424196 -0.00460726 -0.01670908 -0.041715898
-0.016075715 -0.014262101 -0.011768666 -0.022576997 -0.026825713 -0.023587693 -0.011727477 -0.0034486006
-0.024334755 -0.038961854 -0.030628633 -0.0072421427 -0.027775476 -0.016572203 -0.020374073 -0.011512724
-0.013827411 -0.017281413 0.004415789 -0.007830788 -0.0143206995 -0.024686838 -0.034247763 -0.01370201
-0.01944146 -0.032964256 -0.011173135 -0.005647716 -0.007072838 -0.001406898 0.013297457 -0.007968919
0.023672868 0.028356306 0.0094235325 -0.0017573466 0.0040519526 0.010299022 -0.010002928 -0.007951346
0.0023649973 0.004775514 0.0018591755 0.013071824 0.01533294 -0.01764525 0.00491727 0.019284392
0.013656465 0.038763188 0.014742333 -0.0014517063 0.023121031 -0.013350268 0.0057053072 -0.0009455732
0.0133984955 0.009584995 0.007520906 0.011309503 0.029549498 0.01250482 0.0021976577 0.016857566
-0.019590098 -0.0036256993 -0.0077655707 -0.032149427 -0.04460192 -0.04737187 -0.058710143 -0.05420204
-0.031075988 -0.036690257 -0.038423926 -0.036286764 -0.030281806 -0.05569914 -0.014598791 -0.041773286
-0.029664205 0.011305462 -0.01261112 0.006495514 -0.013697932 -0.02342746 -0.05397175 -0.025597567
-0.01582109 -0.00714998 -0.010047749 -0.009813499 -0.008946576 -0.03883374 -0.022742173 -0.019374307
00000000: d958 bdbd 6c70 f0bd 44fb debd e6ee abbd
00000010: 1f05 d2bd 1511 b7bd 38e8 adbd c9dc dbbd
00000020: 0cad afbd 347a dcbd 463b b7bd a741 b2bd
00000030: 913a 96bd 6e7d c5bd 41ec ecbd 746c edbd
00000040: 3af6 b4bd b3f1 a6bd 8bd3 c6bd 9288 ccbd
00000050: d15a d7bd 1b7a e2bd 4e17 d6bd c89c b2bd
00000060: 40b6 d9bd 147f babd 3eb2 ccbd b39a cebd
00000070: 1d14 d6bd 1ab0 d9bd 0f8b babd cc17 cdbd
00000080: 7639 573c 45dc 283c f4d3 a7bc ae7c 1cbd
00000090: 7b95 393c a66c a13b 7b22 ae3c 557d 493d
000000a0: e76c 303d 4a66 0e3d c14c 9e3c f9dc f03c
000000b0: 02a1 a83c f1d0 0a3d f374 d93c 5388 03bb
000000c0: e010 ce3c 302a 123d b211 ca3c 022c a33c
000000d0: c08c a73c db1f d53c a24f ca3c c313 7d3c
000000e0: e9ce c53c 8208 37bc da0c a53b bcbf 5d3c
000000f0: 98a3 afbc 831a 5f3b a8dc ef3c f1f5 8f3c
00000100: 4902 b43c a9ac 253d 72b5 863c f013 1c3c
00000110: 8da3 1f3d d402 113d bfff df3c 280f 1f3d
00000120: b4d0 3d3d 01f3 2d3d 4afd 533d e291 5c3d
00000130: 2b61 743d 2c07 5a3d 0db9 273d 2983 9a3d
00000140: 5f46 5f3d f682 323d 9a30 493d ae9c 593d
00000150: 3b08 823d 85cd 563d 184f 303d 2019 523d
00000160: a629 273d 160d 6b3d a01d 5e3d b038 953d
00000170: 082c 7b3d 33f6 213d e138 8e3d d236 933d
00000180: e435 2abd 1e7d 35bd 7860 7ebd 9796 27bd
00000190: 9a8e e6bc a54b f9bc 9539 1fbd 0f0c 43bd
000001a0: 339c eebc bb2a 8cbc def2 c3bc 8401 61bc
000001b0: 2f6b e8bc 061a 86bc 8ebd 0ebc 705a e4ba
000001c0: b8b0 c9bc 4594 11bd c60b 8dbc 6dcc 2fbc
000001d0: a9b9 dfbc 7ec2 fcbc 8dd5 c5bb fdbb 1bbc
000001e0: 0080 34bb 4b50 87bc d8c1 fabc 65b6 c4bb
000001f0: 2e8d c3bc 91f4 7d39 9249 12bc 04e9 f6bc
00000200: dd96 2ebd efac 3abd 2bda 74bd 5a0b 75bd
00000210: d3f3 b7bc 73d3 89bc 7114 21bd fef2 d6bc
00000220: 1a9c 2bbd e07a 2dbd 7c0f 1cbd 00c3 b8bc
00000230: 39d7 1fbd 0ba8 17bd eb24 64bd f5f8 cabc
00000240: e31f abbc 0812 3cbd 0083 3ebd 481c 17bd
00000250: e428 5fbc 0020 0abd c174 babc 9973 8dbc
00000260: 0e3f fbbc 30be 23bd 3c4d 2abd ea51 41bd
00000270: 030b f1bc 80f8 96bb 7be1 88bc 4ade 2abd
00000280: 38b1 83bc 96ab 69bc 5dd1 40bc 65f3 b8bc
00000290: 99c1 dbbc fa3a c1bc 9b24 40bc eb01 62bb
000002a0: ae59 c7bc 7796 1fbd e6e8 fabc 7f4f edbb
000002b0: 6589 e3bc 6ec2 87bc 87e7 a6bc dd9f 3cbc
000002c0: 5e8c 62bc c091 8dbc 53b2 903b b54c 00bc
000002d0: 5ea1 6abc 0d3c cabc 6247 0cbd 657e 60bc
000002e0: b243 9fbc 8705 07bd 860f 37bc 7a10 b9bb
000002f0: 44c3 e7bb aa67 b8ba 94dd 593c 1290 02bc
00000300: 9aed c13c 7c4b e83c 2965 1a3c c456 e6ba
00000310: 3ec6 843b 3bbd 283c 52e3 23bc 5d46 02bc
00000320: 12fe 1a3b ea7b 9c3b 94af f33a 342b 563c
00000330: 0337 7b3c c58c 90bc 0d21 a13b 4dfa 9d3c
00000340: 5ebf 5f3c 26c6 1e3d d489 713c 2e47 beba
00000350: 5168 bd3c 15bb 5abc 96f3 ba3b 58e0 77ba
00000360: 5d85 5b3c 620a 1d3c ef71 f63b 7e4b 393c
00000370: ca11 f23c 04e1 4c3c 9406 103b e118 8a3c
00000380: 6a7b a0bc 249d 6dbb 5476 febb 1eaf 03bd
00000390: 81b0 36bd 0209 42bd 0c7a 70bd f502 5ebd
000003a0: 1293 febc 8648 16bd 6862 1dbd 6ea1 14bd
000003b0: 8d11 f8bc c824 64bd c42f 6fbc 771a 2bbd
000003c0: 5902 f3bc 8b3a 393c df9e 4ebc 52d8 d43b
000003d0: 4a6d 60bc f2ea bfbc 7b11 5dbd fdb1 d1bc
000003e0: 3b9b 81bc 614a eabb 509f 24bc ccc8 20bc
000003f0: a994 12bc 2110 1fbd cb4d babc deb6 9ebc

bias f4 [32]
-0.004364499 -0.011357978 -0.024849765 -0.010709781 0.019297253 -0.021128612 -0.010577 0.010940691
-0.005022086 -0.015117911 0.0059754835 0.009512112 -0.010909742 -0.023238925 -0.01411804 -0.009244327
-0.004898424 -0.0044641816 -0.005991997 -0.022677789 -0.008304774 0.0033982196 -0.012805074 -0.009372009
0.006345823 -0.02778825 0.017829346 -0.01367463 0.0022189175 -0.009017365 -0.0040998366 -0.0057314015
00000000: 1204 8fbb d016 3abc bc91 cbbc 1478 2fbc
00000010: 4615 9e3c e915 adbc 274b 2dbc 9640 333c
00000020: 5090 a4bb 1db1 77bc fdcd c33b b0d8 1b3c
00000030: c6be 32bc 8f5f bebc 5a4f 67bc 8575 17bc
00000040: f582 a0bb 4548 92bb 8458 c4bb c5c6 b9bc
00000050: bf10 08bc aab4 5e3b 60cc 51bc 0e8d 19bc
00000060: 9ff0 cf3b 2fa4 e3bc d90e 923c 8e0b 60bc
00000070: 426b 113b 92bd 13bc ec57 86bb 7bce bbbb

weight f4 [64, 32, 18]
-0.0025749044 0.00070681056 -0.033054832 0.014515899 -0.0024428098 0.0026371898 0.08333993 -0.04231686
0.010024997 -0.008018694 0.05185809 0.024262337 0.050758354 -0.056584507 -0.057859376 -0.040344633
0.0034998527 -0.0067862147 -0.026083264 -0.017190464 -0.025226066 -0.039048467 -0.041907396 -0.021882124
-0.032176346 0.0028098752 0.011805146 -0.020843375 0.01543464 -0.007576759 -0.0041403193 -0.015007261
-0.0074660843 0.010707664 -0.013708537 -0.023195667 -0.05793723 -0.14225914 -0.13322626 -0.09490141
-0.1151192 -0.10411591 -0.07023101 -0.13278013 -0.101406924 -0.077774554 -0.07698981 0.0036403495
-0.026338853 0.048999462 0.07470157 0.051389225 0.030771839 0.13389741 -0.037195522 -0.059269868
-0.07278705 -0.028072255 -0.005471216 -0.008048856 0.00046377425 0.051747434 0.006165347 -0.025926515
-0.05471773 -0.0026631593 -0.003291997 -0.03505449 -0.0075718397 -0.04815531 -0.04495198 -0.08474717
-0.003753306 0.0007198001 0.011483795 0.002049943 -0.015796885 0.01165577 -0.009533856 -0.0504593
-0.0047849827 -0.048245136 -0.026491761 -0.04025214 0.03428279 0.0130499 0.046402454 0.04060325
0.009665197 -0.107231766 -0.027791286 -0.004187383 -0.045263004 0.03284172 -0.022337448 -0.010526153
-0.034582168 0.017169029 -0.050766136 -0.032661717 -0.027428918 -0.047888458 -0.010148877 -0.024564475
-0.02104784 -0.042599287 -0.017296905 0.025849203 -0.027205667 -0.08484075 -0.037569616 -0.0229355
-0.10322171 -0.005343956 0.018438274 0.0367878 0.034427322 0.09107983 0.02518229 0.021576513
-0.002318605 0.051893536 0.1316207 0.035535067 0.12811111 0.07068177 0.022311477 -0.0071431254
-0.029331988 -0.025159353 -0.00488468 -0.080125704 -0.116731435 -0.098991625 -0.13072549 -0.110050835
-0.102961116 -0.06561423 -0.014114874 -0.043666936 -0.048202634 -0.08982799 -0.10628439 -0.12272988
-0.000111354355 0.043651447 0.003850416 0.033098128 0.01795202 -0.044728458 -0.010433985 -0.011965844
0.0071666413 0.026525972 0.0077580046 -0.012363661 0.0105046565 0.02916796 -0.009911869 -0.018616796
0.04200326 0.03145439 0.0652794 -0.016560327 0.012016886 -0.016860005 0.023954466 -0.019835962
-0.043668613 0.0017665117 -0.05689028 0.004623727 0.024544379 -0.036075294 -0.025583316 -0.009817561
-0.012460787 0.011457528 0.06721439 0.016556354 -0.03263787 -0.044859707 -0.014596045 -0.0026373311
0.03004869 0.027837655 -0.03496094 -0.041931186 0.0043541472 0.029444031 -0.0030711838 -0.023159383
0.007987795 -0.024027662 -0.038948603 -0.03386694 0.029034453 0.012499198 0.021932565 -0.026865698
-0.044063903 -0.04669622 -0.06007739 -0.037735056 0.0031489045 0.03568301 -0.0015323287 -0.03715487
-0.033307247 -0.06700356 -0.0411175 0.040937766 0.016125603 0.056519065 0.022338659 -0.050285675
0.004396792 0.0004857334 -0.03693081 0.019966982 -0.028936805 -0.0023532468 -0.03205531 0.030012751
0.02041525 -0.032243617 0.023270464 0.030383589 -0.034549426 0.021245593 0.019223161 -0.024113622
0.027384404 0.03531537 0.00091029244 0.023375105 0.03356597 -0.026404146 0.105119854 0.101106174
-0.003969762 0.061812 0.028638577 -0.07090998 -0.05940712 0.019464217 0.06636216 0.02724095
0.030788872 -0.07651621 0.04661499 -0.08899763 -0.032158744 0.00440615 -0.039314076 -0.005259987
00000000: babf 28bb 4149 393a 8164 07bd 18d4 6d3c
00000010: 8c17 20bb b4d4 2c3b 20ae aa3d 7254 2dbd
00000020: e33f 243c d760 03bc 2669 543d cfc1 c63c
00000030: fee7 4f3d 28c5 67bd f4fd 6cbd 6a40 25bd
00000040: c95d 653b e55e debb 92ac d5bc 04d3 8cbc
00000050: e5a6 cebc 49f1 1fbd 17a7 2bbd 2442 b3bc
00000060: 58cb 03bd e225 383b 5f6a 413c babf aabc
00000070: 93e1 7c3c 7646 f8bb 84ab 87bb 04e1 75bc
00000080: 0ea6 f4bb 336f 2f3c c699 60bc d704 bebc
00000090: 974f 6dbd 61ac 11be 776c 08be ac5b c2bd
000000a0: 9dc3 ebbd b93a d5bd 47d5 8fbd 84f7 07be
000000b0: 6fae cfbd 4448 9fbd d5ac 9dbd ee92 6e3b
000000c0: 94c4 d7bc a9b3 483d 23fd 983d 827d 523d
000000d0: 3915 fc3c 671c 093e 555a 18bd f6c4 72bd
000000e0: 6011 95bd c9f7 e5bc e347 b3bb 59df 03bc
000000f0: ba26 f339 1ef5 533d ae06 ca3b d863 d4bc
00000100: b31f 60bd 6688 2ebb 8bbe 57bb 4c95 0fbd
00000110: 321d f8bb 813e 45bd 911f 38bd ed8f adbd
00000120: 07fa 75bb f8b0 3c3a 8726 3c3c 5658 063b
00000130: 7868 81bc d8f7 3e3c e433 1cbc 69ae 4ebd
00000140: 58cb 9cbb b19c 45bd 4005 d9bc 6edf 24bd
00000150: 1c6c 0c3d 3fcf 553c 8010 3e3d 984f 263d
00000160: c65a 1e3c 549c dbbd 8daa e3bc 5136 89bb
00000170: b365 39bd 0a85 063d 06fd b6bc e375 2cbc
00000180: 08a6 0dbd 10a6 8c3c 27f0 4fbd 4bc8 05bd
00000190: 9cb2 e0bc b026 44bd 7a47 26bc 703b c9bc
000001a0: 856c acbc 977c 2ebd 3db2 8dbc b5c1 d33c
000001b0: 6bde debc fdc0 adbd 99e2 19bd 3be3 bbbc
000001c0: e765 d3bd 5a1c afbb dd0b 973c ceae 163d
000001d0: aa03 0d3d 1088 ba3d 174b ce3c 3ac1 b03c
000001e0: bdf3 17bb 518e 543d 94c7 063e 388d 113d
000001f0: 8f2f 033e 9bc1 903d 8fc6 b63c e110 eabb
00000200: a349 f0bc fd1a cebc aa0f a0bb f218 a4bd
00000210: e410 efbd 1fbc cabd e7dc 05be 5562 e1bd
00000220: 47dd d2bd c160 86bd 1342 67bc 1adc 32bd
00000230: 2070 45bd bdf7 b7bd a1ab d9bd ce59 fbbd
00000240: ea86 e9b8 dccb 323d 4357 7c3b e791 073d
00000250: 1d10 933c 3035 37bd 4ef3 2abc 630c 44bc
00000260: 25d6 ea3b ff4c d93c dc36 fe3b f490 4abc
00000270: b91b 2c3c a5f1 ee3c 6465 22bc 4082 98bc
00000280: 9c0b 2c3d 52d6 003d 35b1 853d 86a9 87bc
00000290: 79e2 443c fe1d 8abc 283c c43c 077f a2bc
000002a0: dcdd 32bd 4c8a e73a c805 69bd a282 973b
000002b0: 4b11 c93c b0c3 13bd 1a94 d1bc d6d9 20bc
000002c0: 5428 4cbc 5bb8 3b3c b3a7 893d 31a1 873c
000002d0: 4aaf 05bd d0be 37bd 4024 6fbc 13d7 2cbb
000002e0: ac28 f63c cb0b e43c 3433 0fbd 09c0 2bbd
000002f0: 3cad 8e3b 9c34 f13c ea45 49bb bfb8 bdbc
00000300: 3edf 023c a9d5 c4bc 9288 1fbd 0fb8 0abd
00000310: a9d9 ed3c 70c9 4c3c ecab b33c 7415 dcbc
00000320: 5a7c 34bd 8944 3fbd b613 76bd 1390 1abd
00000330: da5d 4e3b 5928 123d 6bd8 c8ba b42f 18bd
00000340: 2e6d 08bd 2a39 89bd d36a 28bd 5cae 273d
00000350: d719 843c 8980 673d 90ff b63c 5af8 4dbd
00000360: f712 903b 09aa fe39 c344 17bd cc91 a33c
00000370: e10c edbc ee38 1abb 6e4c 03bd 4ddd f53c
00000380: e23d a73c e211 04bd b3a1 be3c 01e7 f83c
00000390: b383 0dbd 3d0b ae3c e479 9d3c ee89 c5bc
000003a0: 4255 e03c d9a6 103d b1a0 6e3a 267d bf3c
000003b0: 787c 093d 824d d8bc 1449 d73d c110 cf3d
000003c0: c714 82bb 942e 7d3d 739b ea3c 4039 91bd
000003d0: e154 73bd 6c73 9f3c e2e8 873d 6a28 df3c
000003e0: f238 fc3c 88b4 9cbd 5cef 3e3d 6444 b6bd
000003f0: e3b8 03bd 7761 903b cc07 21bd f85b acbb

bias f4 [64]
0.010512433 0.042577215 0.04700092 -0.08284734 0.036854062 0.053817134 -0.046204384 0.053799402
0.049592525 0.023081603 -0.0044263527 0.019274704 0.017280601 0.042460125 0.048087064 -0.02418602
0.0517153 0.009753184 0.009443811 -0.042867124 0.016194066 -0.005343836 0.04440624 0.023292018
0.04694372 0.0076255645 0.005385969 0.037045505 0.07560168 0.030016063 -0.01664477 -0.04047957
-0.07433571 0.02590919 0.034115765 0.039965495 0.03147451 -0.02778603 -0.016906213 0.0010795798
-0.061143506 -0.00888066 0.003290855 0.008882444 0.050206535 0.048543654 0.020703113 -0.0051541766
0.039795376 0.011667342 -0.001138757 0.013766812 0.027390193 0.03987615 0.043220993 0.01669235
0.046898622 0.023615072 0.025033347 0.008825666 0.016730657 0.006337065 0.014173445 0.02443418
00000000: 573c 2c3c 7265 2e3d 0984 403d deab a9bd
00000010: 49f4 163d 5b6f 5c3d cf40 3dbd c35c 5c3d
00000020: 8821 4b3d a115 bd3c f00a 91bb fce5 9d3c
00000030: 0c90 8d3c abea 2d3d f1f6 443d c321 c6bc
00000040: 6cd3 533d d2cb 1f3c 37ba 1a3c 7095 2fbd
00000050: 6ba9 843c 581b afbb 51e3 353d e7ce be3c
00000060: 0f48 403d dfdf f93b c87c b03b 07bd 173d
00000070: 0ed5 9a3d 3fe4 f53c 9d5a 88bc e8cd 25bd
00000080: 523d 98bd 823f d43c f9bc 0b3d dcb2 233d
00000090: 6aeb 003d 879f e3bc e67e 8abc b080 8d3a
000000a0: 9d71 7abd 3080 11bc 63ab 573b ac87 113c
000000b0: 5ea5 4d3d b6d5 463d 9399 a93c 5ee4 a8bb
000000c0: 7a00 233d 6128 3f3c 5842 95ba 328e 613c
000000d0: 6661 e03c 2d55 233d 7f08 313d 65be 883c
000000e0: c518 403d 6574 c13c bc12 cd3c 8799 103c
000000f0: bb0e 893c 27a7 cf3b bd37 683c 312a c83c

weight f4 [128, 64, 3]
0.024069738 0.12546042 -0.026774902 0.00690582 0.009284522 -0.006174016 -0.0454443 -0.028604547
-0.023859182 0.043682214 -0.12168228 -0.09640101 0.11236371 0.08198542 -0.07844833 -0.028599855
0.014589758 0.04467581 -0.071038276 0.0036086293 -0.055340596 -0.024411775 0.015516506 -0.05117866
0.14764221 0.14295775 0.08853473 -0.051862303 -0.04000953 -0.013289209 0.023181155 -0.0023934916
-0.027492058 0.033227555 -0.012322154 -0.069510445 0.053926133 0.024821755 -0.004634616 -0.021119135
-0.035664815 -0.13413838 0.023652542 0.06460944 0.06359661 0.079177015 0.097483076 0.057998434
0.023119135 -0.04944687 0.019823678 -0.03182519 0.07832326 0.015571322 -0.0052259713 0.053242307
0.007161226 0.010376202 0.09349657 0.027312415 0.043764334 0.06143706 -0.060679205 0.00083514117
-0.03371759 -0.06794376 -0.026868917 -0.029319415 -0.040004395 -0.016846893 -0.05189573 -0.060408935
-0.0047624954 -0.009804107 -0.08112579 -0.028565245 -0.00248313 -0.061323807 0.038049 -0.055745773
0.065422975 0.062298313 0.04571651 0.025840221 -0.10768156 -0.06790811 -0.14667463 0.039164018
0.092013516 -0.10841966 -0.026594443 0.07543027 -0.01116405 -0.051033717 -0.06257388 0.029634014
-0.042599216 -0.08416314 -0.13501397 0.043520354 0.06442981 0.05916875 0.00870542 0.03145257
0.073417395 0.080181986 0.009612621 -0.07489272 0.02615624 -0.07041571 0.013355989 -0.026623473
-0.0043838974 -0.07140817 0.059617396 0.16681013 0.049150176 0.06745619 -0.046842933 -0.048786405
-0.13414519 0.07393175 0.040704377 0.11045514 0.054268166 -0.024887547 -0.0008715682 0.05077901
-0.07538085 0.00065327814 -0.0128379585 -0.10628539 0.08315034 -0.08227679 -0.042741936 -0.009578785
-0.032071244 0.078734174 0.09318553 -0.053394232 0.0063600778 -0.037962146 -0.036938827 -0.06538745
-0.033588294 0.06557956 -0.044083923 -0.023773255 -0.042370103 -0.12652022 -0.0055655926 0.04961933
-0.027742382 -0.041732874 -0.10004019 -0.0026000724 0.037414894 -0.021808568 -0.1420236 0.008433768
0.018161379 0.08576768 -0.051604964 -0.082703434 0.010617618 0.057800055 -0.054270934 -0.02984024
-0.08644768 -0.0015243243 -0.008646079 0.0057779816 0.032618836 0.022744803 -0.035508472 0.012490737
0.0465852 0.03655267 0.043572973 -0.11066613 -0.0012213611 0.048072815 0.056218486 0.040305678
-0.062593944 -0.0001950405 0.058880616 0.034058545 -0.02805423 0.08259701 0.13337353 0.020957584
-0.058360044 0.03597844 0.093174495 0.016477235 0.017204223 -0.01828865 -0.008177323 0.015805915
0.029811386 0.06208814 0.08059038 0.06146167 0.066945665 0.023872536 0.06362696 -0.08224162
0.0109359 0.0058960044 0.026508383 0.03924862 0.08106873 -0.024653057 0.14584267 0.075422406
-0.07484408 0.06710627 -0.023392625 0.030489136 0.062490698 0.01898987 0.027984107 -0.03956469
-0.045032606 0.045110323 -0.0024358167 0.009806726 -0.0120313205 -0.013095822 0.049854465 0.1496783
0.098873824 0.18593134 -0.06346866 -0.0013565986 0.01980271 0.004552535 -0.08396491 0.017109847
0.041126583 -0.03903894 0.008755761 -0.029146153 -0.08390417 -0.029235318 0.046454407 0.03889442
0.06723511 0.056755126 -0.026834588 0.031609915 0.0316366 0.008183913 0.09445366 -0.01989737
00000000: e62d c53c b278 003e 0a57 dbbc 384a e23b
00000010: 1c1e 183c 664f cabb cd23 3abd 1554 eabc
00000020: 5574 c3bc 1fec 323d 8f34 f9bd e56d c5bd
00000030: f21e e63d f9e7 a73d 85a9 a0bd 3e4a eabc
00000040: e109 6f3c fbfd 363d 847c 91bd c17e 6c3b
00000050: d2ac 62bd 34fb c7bc f138 7e3c b7a0 51bd
00000060: 852f 173e 8463 123e b251 b53d 916d 54bd
00000070: 08e1 23bd fcba 59bc 68e6 bd3c 20dc 1cbb
00000080: 0637 e1bc 9e19 083d dce2 49bc 7e5b 8ebd
00000090: a6e1 5c3d fe56 cb3c fadd 97bb 0902 adbc
000000a0: 4515 12bd 925b 09be fac2 c13c f451 843d
000000b0: f13e 823d 8f27 a23d 35a5 c73d c48f 6d3d
000000c0: 5764 bd3c cd88 4abd 4465 a23c 215b 02bd
000000d0: f267 a03d dc1e 7f3c a03e abbb 9b14 5a3d
000000e0: b8a8 ea3b f200 2a3c 217b bf3d 49be df3c
000000f0: 3b42 333d 6da5 7b3d c28a 78bd 60ed 5a3a
00000100: 751b 0abd 1926 8bbd 341c dcbc 452f f0bc
00000110: a6db 23bd 7f02 8abc 9e90 54bd 5c6f 77bd
00000120: b50e 9cbb 68a1 20bc 4725 a6bd a901 eabc
00000130: 02bc 22bb ac2e 7bbd 45d9 1b3d ae55 64bd
00000140: 7bfc 853d 842c 7f3d 3c41 3b3d dfae d33c
00000150: 2688 dcbd 6813 8bbd e031 16be 736a 203d
00000160: 9571 bc3d 200b debd 97dc d9bc 2f7b 9a3d
00000170: 6be9 36bc bb08 51bd bc26 80bd 08c3 f23c
00000180: 847c 2ebd b95d acbd 1a41 0abe 6642 323d
00000190: c7f3 833d ee5a 723d 2ea1 0e3c 69d4 003d
000001a0: dc5b 963d 7436 a43d 417e 1d3c 5b61 99bd
000001b0: 9c45 d63c 1d36 90bd 14d3 5a3c 7819 dabc
000001c0: cca6 8fbb 723e 92bd 5f31 743d 46d0 2a3e
000001d0: b251 493d 7926 8a3d 60de 3fbd 41d4 47bd
000001e0: 5b5d 09be 8869 973d a2b9 263d 4e36 e23d
000001f0: 4c48 5e3d f8e0 cbbc f479 64ba a7fd 4f3d
00000200: 4661 9abd c140 2b3a 4d56 52bc 28ac d9bd
00000210: ba4a aa3d bc80 a8bd 2b12 2fbd 56f0 1cbc
00000220: 235d 03bd 623f a13d 0ed8 be3d e9b3 5abd
00000230: 3368 d03b 327e 1bbd 2b4d 17bd dbe9 85bd
00000240: e193 09bd 944e 863d 5891 34bd 21c0 c2bc
00000250: 468c 2dbd 848e 01be 935f b6bb a33d 4b3d
00000260: fe43 e3bc 17f0 2abd dfe1 ccbd fa65 2abb
00000270: 5c40 193d e2a7 b2bc a26e 11be c92d 0a3c
00000280: 2cc7 943c f7a6 af3d ba5f 53bd 6b60 a9bd
00000290: 85f5 2d3c c0bf 6c3d 334b 5ebd 8573 f4bc
000002a0: 7b0b b1bd d6cb c7ba 49a8 0dbc 3955 bd3b
000002b0: 549b 053d 4f53 ba3c 5571 11bd f3a5 4c3c
000002c0: 1fd0 3e3d 41b8 153d 9379 323d eda4 e2bd
000002d0: 1416 a0ba 00e8 443d 5b45 663d 9117 253d
000002e0: 4131 80bd c983 4cb9 cd2c 713d f980 0b3d
000002f0: fcd1 e5bc 9f28 a93d 1293 083e 3daf ab3c
00000300: f10a 6fbd 215e 133d 45d2 be3d 44fb 863c
00000310: dfef 8c3c 14d2 95bc 2efa 05bc 687b 813c
00000320: 0237 f43c 2250 7e3d 920c a53d 3bbf 7b3d
00000330: cf1a 893d 5690 c33c da4e 823d 4b6e a8bd
00000340: 7d2c 333c 4533 c13b 1c28 d93c 29c3 203d
00000350: 5d07 a63d 35f5 c9bc c857 153e 1077 9a3d
00000360: da47 99bd 036f 893d e4a1 bfbc 5ac4 f93c
00000370: 3ff6 7f3d a590 9b3c ed3e e53c 960e 22bd
00000380: 1c74 38bd 9ac5 383d 39a2 1fbb 64ac 203c
00000390: 041f 45bc dc8f 56bc 3234 4c3d 4545 193e
000003a0: 5c7e ca3d c964 3e3e dbfb 81bd e5cf b1ba
000003b0: 4b39 a23c 6e2d 953b cbf5 abbd f329 8c3c
000003c0: 5974 283d 4ce7 1fbd 5374 0f3c eac3 eebc
000003d0: f3d5 abbd e87e efbc fa46 3e3d c14f 1f3d
000003e0: 90b2 893d 1078 683d 36d4 dbbc 6679 013d
000003f0: 6195 013d d215 063c ec70 c13d cfff a2bc

bias f4 [128]
-0.037354745 -0.02598028 0.07821606 -0.00092297554 -0.0278778 -0.04770611 -0.01751863 0.002948781
0.015528248 0.067349575 0.013783436 0.08078934 -0.04026377 -0.023648392 0.047967177 0.050209437
0.002105771 0.107965134 -0.010377899 -0.017223602 0.040690437 0.008569686 0.04596042 0.019454053
0.06722433 -0.025150977 -0.045100097 -0.028052712 0.05779316 0.04149906 0.050898816 0.012235788
-0.07111728 0.0520612 0.09472587 0.000743341 0.04179082 -0.012505774 0.049084023 0.04549927
-0.009838793 0.09651879 0.049911108 -0.013127044 0.03983925 -0.014316173 -0.02669108 0.064020455
0.0010302768 0.050395098 0.02313985 -0.02826279 0.06981429 0.017493438 0.040068932 0.051049262
-0.014628037 -0.035387725 0.041663878 0.037486125 0.05808641 0.05110152 0.021779755 -0.016510315
0.038242456 -0.014148991 0.055622447 0.024312142 -0.018153725 0.07296656 -0.012960706 0.036063794
0.14778183 0.042165313 0.014405537 -0.062126588 0.021817768 -0.0052719726 0.019303208 0.12828867
0.06578625 0.06836498 0.006120668 0.051616017 0.06561955 0.049586773 -0.018635249 0.08361194
-0.04898277 -0.015809914 0.025650024 0.05353487 0.075064726 0.01635438 0.07536694 -0.07125212
0.025479512 0.051835872 0.059179988 -0.02787687 0.034676503 -0.042288385 0.0031029014 0.038140103
0.073508985 0.046473935 0.08319942 -0.037188396 0.012708028 0.024226142 0.03427294 0.019986892
-0.008633099 -0.00037679667 -0.020476613 -0.025408009 0.020008327 -0.029223222 -0.037096992 -0.077903256
-0.07238883 0.00703801 -0.04260466 0.061105173 -0.004582333 0.049613632 0.021458246 -0.005118176
00000000: 4a01 19bd 99d4 d4bc be2f a03d d7f3 71ba
00000010: fc5f e4bc 7b67 43bd 3b83 8fbc 5640 413b
00000020: 316a 7e3c 93ee 893d ecd3 613c e274 a53d
00000030: 9feb 24bd 46ba c1bc 3b79 443d 69a8 4d3d
00000040: fa00 0a3b d31c dd3d 1008 2abc 8318 8dbc
00000050: 04ab 263d de67 0c3c fe40 3c3d 1b5e 9f3c
00000060: e9ac 893d 6c09 cebc e1ba 38bd cdce e5bc
00000070: 85b8 6c3d ebfa 293d 477b 503d 9d78 483c
00000080: f0a5 91bd 203e 553d a3ff c13d c5dc 423a
00000090: da2c 2b3d 05e5 4cbc 540c 493d 715d 3a3d
000000a0: e432 21bc a5ab c53d 976f 4c3d d012 57bc
000000b0: 7b2e 233d 628e 6abc 40a7 dabc 281d 833d
000000c0: 5a0a 873a 176b 4e3d c88f bd3c 5e87 e7bc
000000d0: cbfa 8e3d 664e 8f3c 521f 243d 0819 513d
000000e0: 6faa 6fbc b8f2 10bd bea7 2a3d 0d8b 193d
000000f0: 04ec 6d3d d44f 513d 756b b23c a440 87bc
00000100: 1fa4 1c3d 2bd1 67bc 5dd4 633d 422a c73c
00000110: 1fb7 94bc 7e6f 953d 2459 54bc a1b7 133d
00000120: 1f54 173e 89b5 2c3d 3405 6c3c 7378 7ebd
00000130: 2dbb b23c 83c0 acbb c321 9e3c 1b5e 033e
00000140: f1ba 863d f002 8c3d e28f c83b 516b 533d
00000150: 8b63 863d 801b 4b3d f3a8 98bc bd3c ab3d
00000160: 28a2 48bd cb83 81bc 0020 d23c 6147 5b3d
00000170: 89bb 993d 9ff9 853c fb59 9a3d a2ec 91bd
00000180: 69ba d03c da51 543d b766 723d 095e e4bc
00000190: f308 0e3d 9636 2dbd 0c5a 4b3b cc38 1c3d
000001a0: e18b 963d 745b 3e3d 7564 aa3d dc52 18bd
000001b0: 5535 503c e775 c63c c861 0c3d 8dbb a33c
000001c0: d771 0dbc cb8c c5b9 92be a7bc 7524 d0bc
000001d0: 81e8 a33c 8a65 efbc 04f3 17bd be8b 9fbd
000001e0: 9840 94bd 1b9f e63b 3982 2ebd 6b49 7a3d
000001f0: 6527 96bb aa37 4b3d 34c9 af3c 5fb6 a7bb

weight f4 [4, 512]
-0.02113042 -0.05251326 -0.060598336 0.013224822 0.03392597 -0.044325184 0.008232782 0.037663694
-0.10579587 -0.022857381 0.073695354 -0.11465522 -0.041020613 0.015630689 0.050793353 -0.023109887
-0.024215786 0.020167591 0.00029229547 0.031653352 0.027374595 0.003937319 -0.017696144 0.04746816
-0.016803872 -0.014509848 -0.039372303 0.033879932 -0.028474942 -0.018533114 0.042269446 0.038892526
0.0016519747 -0.005649485 -0.043062378 -0.052553408 0.07267264 -0.0014440973 0.056201898 0.04301171
-0.037495058 -0.01805955 0.028870074 0.0065550683 -0.008713981 0.029893076 0.057581253 0.02842766
-0.021040844 0.02037817 -0.05233725 0.04840558 0.021293124 -0.0034981517 -0.0396478 0.046012122
0.01927407 -0.062122557 -0.062706836 -0.024422292 -0.026961504 -0.009899114 -0.027032243 -0.060589936
-0.014476608 -0.06306118 -0.010887186 -0.05030735 0.0136569785 -0.03195705 -0.029982187 0.00965819
0.033029936 -0.021516545 -0.06899332 -0.09454404 0.024071211 -0.01115752 0.022616446 -0.05622019
0.006017723 0.032628577 0.0093385335 0.0038767927 -0.08685949 -0.011523629 0.038814966 -0.051989038
-0.035158485 -0.06724264 -0.057801146 -0.008696292 0.03374085 0.033374358 0.05171608 0.011624889
-0.047132738 0.025622942 -0.067807876 -0.077577755 0.018048232 0.05477178 0.028720198 0.07842516
-0.022687472 0.013525996 -0.013232509 0.043458965 -0.051274985 -0.011762303 0.010813403 0.022979897
-0.07494293 -0.003548293 -0.07466295 0.01636986 -0.01944558 0.04319506 -0.039267126 0.04505905
0.028657313 -0.020193184 0.029105231 0.08502954 -0.0381588 -0.036084052 0.08511607 0.059898898
0.082949035 -0.07487501 0.0017236216 0.0055527687 -0.03222682 0.00031578218 0.048805837 -0.025899801
-0.013294895 0.047824744 0.072555386 -0.011775207 0.0148097 0.011091638 -0.04738269 0.048953913
-0.012924123 0.01079845 0.019848388 0.022505598 0.015852734 -0.020720582 0.034336008 0.039123006
0.03344071 0.02273935 0.0011291453 0.036405113 -0.025038453 0.042295903 0.017212972 -7.0605936e-05
-0.03806089 -0.024916299 -0.028404545 -0.052355833 0.009839869 -0.06738765 0.016602872 -0.06861488
-0.010553214 0.017525544 0.041765306 0.08332571 0.027433138 -0.019569766 0.07896826 0.067057356
0.028562574 0.0635113 0.0041281106 0.04464854 0.026526222 9.627506e-05 0.0041532377 -0.00049788755
-0.0075240983 0.042800296 0.03642689 0.052148525 -0.0013321553 -0.012869031 -0.018743556 0.036935046
0.012666148 0.04742746 0.03809345 0.07174432 0.046594415 0.01907417 -0.009129969 -0.03990097
0.007978174 -0.030815838 -0.01252775 -0.057778258 0.06648818 0.010428214 0.0067732898 0.041740373
0.023314342 0.079379626 0.00013367145 0.037240997 -0.004054776 -0.06338742 -0.028626913 -0.008927934
0.058928214 -0.06737651 0.012689365 0.054891128 -0.04006079 0.01113518 -0.014949974 -0.010936008
0.024431206 -0.015908623 -0.08369833 0.0098402295 0.047277786 -0.0071412977 0.025561485 -0.029585056
-0.026304124 0.0051454687 -0.04786166 -0.04880938 -0.065172814 0.03925547 0.07683115 0.006855322
-0.048737846 -0.047086243 -0.008317857 -0.06868701 -0.04901274 -0.006330113 0.03251095 -0.05927711
0.04025408 0.07700477 0.003374745 0.007609127 0.011974703 0.06008519 0.028448526 -0.0075037736
00000000: b419 adbc 2518 57bd f635 78bd ecac 583c
00000010: f5f5 0a3d 538e 35bd cae2 063c 3f45 1a3d
00000020: 81ab d8bd 673f bbbc 97ed 963d 5bd0 eabd
00000030: 3b05 28bd ee0b 803c b10c 503d f250 bdbc
00000040: 2f60 c6bc 8136 a53c 3c3f 9939 f2a6 013d
00000050: b040 e03c a004 813b 81f7 90bc f96d 423d
00000060: 46a8 89bc b7ba 6dbc da44 21bd afc5 0a3d
00000070: 4844 e9bc c2d2 97bc ba22 2d3d c54d 1f3d
00000080: 1387 d83a 511f b9bb 2d62 30bd 3e42 57bd
00000090: 65d5 943d dd47 bdba f633 663d 0c2d 303d
000000a0: 6b94 19bd 9ff1 93bc ef80 ec3c e6cb d63b
000000b0: 16c5 0ebc 53e2 f43c 52da 6b3d 20e1 e83c
000000c0: d95d acbc 1ff0 a63c 965f 56bd ee44 463d
000000d0: eb6e ae3c 3f41 65bb bb65 22bd 3577 3c3d
000000e0: a8e4 9d3c 3974 7ebd 716c 80bd 4211 c8bc
000000f0: 5fde dcbc e52f 22bc b972 ddbc 272d 78bd
00000100: 4b2f 6dbc 3826 81bd 2b60 32bc 140f 4ebd
00000110: 85c1 5f3c 65e5 02bd 349d f5bc 633d 1e3c
00000120: 664a 073d 7743 b0bc 5f4c 8dbd 4ea0 c1bd
00000130: fd30 c53c 08ce 36bc 2046 b93c 2447 66bd
00000140: 5230 c53b 8ba5 053d a600 193c ca11 7e3b
00000150: 63e3 b1bd 9acd 3cbc 71fc 1e3d 75f2 54bd
00000160: 5802 10bd 82b6 89bd e5c0 6cbd e47a 0ebc
00000170: d833 0a3d 8db3 083d 3ed4 533d 5276 3e3c
00000180: 420e 41bd 34e7 d13c dbde 8abd 16e1 9ebd
00000190: e3d9 933c 6058 603d 9f46 eb3c 5f9d a03d
000001a0: 14db b9bc 249c 5d3c 2acd 58bc 0702 323d
000001b0: b805 52bd adb6 40bc b32a 313c 5640 bc3c
000001c0: ae7b 99bd 7a8a 68bb e4e8 98bd 161a 863c
000001d0: 564c 9fbc 4eed 303d 91d6 20bd d78f 383d
000001e0: bec2 ea3c 2d6c a5bc 186e ee3c f823 ae3d
000001f0: 674c 1cbd dfcc 13bd 5651 ae3d 8c58 753d
00000200: 2fe1 a93d 1258 99bd 25eb e13a 00f4 b53b
00000210: 4500 04bd 918f a539 a1e8 473d d22b d4bc
00000220: d5d2 59bc e1e3 433d eb97 943d ccec 40bc
00000230: 62a4 723c b4b9 353c 5a14 42bd e683 483d
00000240: b3bf 53bc fbeb 303c 1699 a23c a95d b83c
00000250: 98dd 813c 36be a9bc eaa3 0c3d 723f 203d
00000260: 20f9 083d e047 ba3c d4ff 933a 871d 153d
00000270: 711d cdbc 783e 2d3d 3802 8d3c 4612 94b8
00000280: bce5 1bbd 441d ccbc a6b0 e8bc 1273 56bd
00000290: 6737 213c 8902 8abd bf02 883c f585 8cbd
000002a0: 63e7 2cbc bb91 8f3c 1912 2b3d aba6 aa3d
000002b0: 76bb e03c c650 a0bc 1cba a13d 5e55 893d
000002c0: 0ffc e93c 3612 823d 1a45 873b 63e1 363d
000002d0: 854d d93c 47e7 c938 e217 883b ab84 02ba
000002e0: b68c f6bb 5d4f 2f3d 5d34 153d b199 553d
000002f0: b79b aeba a1d8 52bc 168c 99bc 3449 173d
00000300: ad85 4f3c 4c43 423d e107 1c3d b0ee 923d
00000310: c9d9 3e3d 6f41 9c3c de95 15bc 336f 23bd
00000320: e3b6 023c 7f71 fcbc 3141 4dbc e5a8 6cbd
00000330: f42a 883d 1adb 2a3c 79f2 dd3b f4f7 2a3d
00000340: b8fd be3c c991 a23d 282a 0c39 048a 183d
00000350: eddd 84bb 43d1 81bd fd82 eabc 7846 12bc
00000360: b65e 713d b2fc 89bd 0ee7 4f3c 85d5 603d
00000370: c816 24bd 5470 363c bcf0 74bc f12c 33bc
00000380: f423 c83c cd52 82bc 086a abbd ea38 213c
00000390: 5aa6 413d 8c01 eabb 5266 d13c 5c5c f2bc
000003a0: bf7b d7bc 529b a83b 970a 44bd 58ec 47bd
000003b0: 5379 85bd 58ca 203d a659 9d3d 9ca2 e03b
000003c0: 56a1 47bd 81dd 40bd 9f47 08bc c6ab 8cbd
000003d0: 95c1 48bd d66c cfbb 342a 053d 8ecc 72bd
000003e0: 76e1 243d adb4 9d3d d32a 5d3b fc55 f93b
000003f0: 8b31 443c e31b 763d e20c e93c 37e2 f5bb

bias f4 [4]
-0.031830747 -0.026370436 0.0030426898 0.0058335336
00000000: f560 02bd d006 d8bc dd67 473b 3a27 bf3b

weight f4 [2, 4]
-0.06242475 -0.34576416 -0.24760844 -0.3798587 0.6200439 -0.15826662 0.4564672 0.5095118
00000000: 18b1 7fbd 0008 b1be 118d 7dbe d77c c2be
00000010: 32bb 1e3f a510 22be 12b6 e93e 5e6f 023f

bias f4 [2]
0.17917351 -0.1708308
00000000: 4379 373e 45ee 2ebe
